proj4/part2/models/model_starter_net.pth (torch_old, 132532 bytes, 10 tensors)

layers.0.weight f4 [64, 3, 5, 5]
0.10335591 -0.025914 -0.13187188 -0.13526179 -0.034117505 0.17546338 -0.12766351 -0.15742269
-0.1934895 -0.14277332 0.13043085 0.0031118894 -0.2644593 -0.23085308 -0.19146271 0.08109242
0.0902526 -0.23368779 0.008590183 -0.07225583 0.20007391 0.065728165 -0.20386802 -0.11702396
-0.03872768 0.041854143 -0.033580773 -0.06476885 -0.039171245 0.057762764 -0.07754317 -0.121895015
-0.17500685 0.088586204 -0.03273213 0.050462913 -0.03483044 -0.17991214 -0.107278466 -0.077071
0.05944176 0.11916432 -0.1266104 0.0793948 0.051952153 0.12697239 0.083945565 0.028698351
-0.09516499 0.05216303 0.07185196 0.086076476 0.036062382 0.14521864 -0.01718461 -0.055098884
0.09574744 0.009429596 0.10735893 0.06670462 0.05886335 0.11242499 0.008532664 0.012446167
0.043439277 0.090065226 0.14743406 -0.007422447 0.079072595 0.070719846 0.06605214 0.073279254
0.13430062 0.18358412 0.16422752 -0.15963621 -0.048142057 -0.26185614 -0.041369494 0.012896541
0.2021856 0.16558866 0.03418898 -0.09149817 0.030220589 -0.09999611 -0.073628545 -0.052711666
-0.16984197 -0.03733407 0.07616833 -0.11010269 0.0012601401 0.10051468 0.056324594 0.0042711766
0.16063617 -0.03427076 0.17606649 0.14813598 0.054312054 -0.09992576 -0.11783306 0.042432897
0.023392873 0.120238364 0.2231101 0.13976206 0.0749425 0.044495404 -0.024094285 -0.03568473
0.07481 0.052503955 -0.08603047 -0.14209795 -0.007038164 -0.12452943 -0.047117185 -0.016504359
0.07121637 -0.14349183 -0.04421843 0.034906782 0.06546901 0.035143502 -0.048181456 0.14106382
-0.052699715 -0.008584405 0.16317326 0.18147954 0.21732941 0.2311419 0.03945714 0.02309395
0.06749622 -0.020601911 -0.09328556 -0.087445736 -0.13387534 0.05712526 0.03694881 -0.11867807
-0.104272276 -0.20171265 -0.15769865 -0.029922515 -0.06596002 -0.12720433 -0.14506955 0.005921848
-0.17757489 -0.16297105 0.0037283977 -0.05130829 -0.13304068 -0.16534653 0.012437206 -0.066697784
-0.08590398 0.020510184 -0.024711816 0.0422832 -0.017964145 0.11496051 0.040181104 0.04711016
-0.11418969 0.10006957 0.005952318 -0.038758688 -0.025012778 -0.13447462 -0.01439543 -0.15407345
-0.028170597 -0.07359662 -0.007316615 0.048302695 0.0020158086 -0.10993337 0.043412894 0.021236686
0.0082192635 0.05650056 0.05857598 0.014173018 0.027038977 0.09811504 0.059453048 0.006905203
0.07160385 0.10300677 0.10320757 0.060684714 -0.13289638 0.039455175 -0.15233785 0.07083381
-0.040131245 -0.117111765 -0.10776706 0.067661785 -0.09060842 0.11353083 0.069256246 -0.09289471
0.027720274 0.045029156 0.06661141 -0.06766669 0.04815336 0.13653423 0.012824587 0.059845984
-0.00830848 -0.032826196 -0.06459748 -0.07495895 -0.044269685 -0.046635605 -0.14370525 -0.118601404
-0.095561124 -0.1201459 -0.0631555 -0.016907828 -0.018620992 0.07896463 -0.06705462 -0.059800837
0.113443516 -0.045538828 0.02135483 0.040059745 0.09055268 -0.069849096 0.0053194743 0.011170151
0.026968004 -0.058999017 0.120905876 0.058684304 0.012033397 -0.057974663 0.0064378763 -0.024685008
0.11447981 0.035275735 -0.13768555 -0.0036691737 -0.08408661 -0.11226525 -0.09504494 -0.09807118
00000000: 43ac d33d 9949 d4bc 6c09 07be 1182 0abe
00000010: ccbe 0bbd acac 333e 39ba 02be 6a33 21be
00000020: 1d22 46be 2b33 12be aa8f 053e d7f0 4b3b
00000030: 3667 87be c064 6cbe cd0e 44be c813 a63d
00000040: 5bd6 b83d da4b 6fbe d7bd 0c3c ddfa 93bd
00000050: 2de0 4c3e 7d9c 863d c7c2 50be 42aa efbd
00000060: eaa0 1ebd 406f 2b3d fe8b 09bd 88a5 84bd
00000070: 0772 20bd a698 6c3d f4ce 9ebd 18a4 f9bd
00000080: ff34 33be af6c b53d 2012 06bd 33b2 4e3d
00000090: 5daa 0ebd e33a 38be d0b4 dbbd 67d7 9dbd
000000a0: 3479 733d 6c0c f43d 28a6 01be be99 a23d
000000b0: c8cb 543d 0d05 023e a7eb ab3d ce18 eb3c
000000c0: dde5 c2bd e7a8 553d 1f27 933d dd48 b03d
000000d0: 26b6 133d 32b4 143e bdc6 8cbc 5eaf 61bd
000000e0: 3c17 c43d 987e 1a3c 00df db3d 6f9c 883d
000000f0: b21a 713d 133f e63d 96cc 0b3c 02eb 4b3c
00000100: 62ed 313d 1e74 b83d f4f8 163e 0038 f3bb
00000110: d0f0 a13d 91d5 903d 5846 873d 6f13 963d
00000120: 1a86 093e 7afd 3b3e 422b 283e ad77 23be
00000130: 9b30 45bd 0212 86be 0f73 29bd 034c 533c
00000140: be09 4f3e 1390 293e be09 0c3d 6463 bbbd
00000150: 2b91 f73c c3ca ccbd 90ca 96bd 30e8 57bd
00000160: 0eeb 2dbe 9ceb 18bd 24fe 9b3d 857d e1bd
00000170: 492b a53a a4da cd3d 9eb4 663d 3af5 8b3b
00000180: cf7d 243e 7f5f 0cbd c64a 343e f5b0 173e
00000190: 5176 5e3d e0a5 ccbd 7652 f1bd 1ece 2d3d
000001a0: 69a2 bf3c 883f f63d f976 643e c91d 0f3e
000001b0: 747b 993d d040 363d 6161 c5bc 272a 12bd
000001c0: fc35 993d 630e 573d be30 b0bd 2082 11be
000001d0: 66a0 e6bb 4909 ffbd f3fd 40bd 2634 87bc
000001e0: e3d9 913d 86ef 12be 621e 35bd 6afa 0e3d
000001f0: 9e14 863d a2f2 0f3d eb59 45bd 0973 103e
00000200: a8db 57bd 9ba5 0cbc e416 273e c6d5 393e
00000210: 9a8b 5e3e 76b0 6c3e cf9d 213d 862f bd3c
00000220: 753b 8a3d 57c5 a8bc 800c bfbd c016 b3bd
00000230: 9e16 09be 2dfc 693d a357 173d 7d0d f3bd
00000240: b48c d5bd c38d 4ebe c17b 21be 1020 f5bc
00000250: 0c16 87bd da41 02be 1d8d 14be 100c c23b
00000260: 31d6 35be e2e1 26be 2258 743b a428 52bd
00000270: d13b 08be 9a50 29be 6cc5 4b3c d998 88bd
00000280: 6dee afbd f904 a83c 6f70 cabc 2631 2d3d
00000290: 8b29 93bc 6a70 eb3d f194 243d 95f6 403d
000002a0: 49dc e9bd 46f1 cc3d aa0b c33b 6ec1 1ebd
000002b0: 99e7 ccbc b7b3 09be cfda 6bbc 6ec5 1dbe
000002c0: 06c6 e6bc d3b9 96bd 37c0 efbb 0cd9 453d
000002d0: a81b 043b bf24 e1bd b8d1 313d 8ff8 ad3c
000002e0: 17aa 063c 226d 673d 5eed 6f3d f235 683c
000002f0: d880 dd3c 8af0 c83d 0a85 733d 0b45 e23b
00000300: 0aa5 923d 37f5 d23d 7e5e d33d 8990 783d
00000310: fd15 08be c09b 213d 74fe 1bbe 5111 913d
00000320: a960 24bd 4bd8 efbd fab4 dcbd 4392 8a3d
00000330: e890 b9bd da82 e83d 38d6 8d3d 953f bebd
00000340: a115 e33c 7e70 383d 906b 883d d594 8abd
00000350: 753c 453d a1cf 0b3e 371e 523c 1021 753d
00000360: 4a20 08bc c374 06bd af4b 84bd 1484 99bd
00000370: 2154 35bd fa04 3fbd 7827 13be 4be5 f2bd
00000380: 8db5 c3bd 0e0f f6bd ac57 81bd 4982 8abc
00000390: 0d8b 98bc 35b8 a13d ef53 89bd b9f1 74bd
000003a0: 1355 e83d ec86 3abd 53f0 ae3c b015 243d
000003b0: af73 b93d 0b0d 8fbd fc4e ae3b 0203 373c
000003c0: 01ec dc3c f4a8 71bd 809d f73d f45e 703d
000003d0: ba27 453c d776 6dbd d2f4 d23b 3738 cabc
000003e0: 6474 ea3d 4a7d 103d 71fd 0cbe 8576 70bb
000003f0: 9a35 acbd 53eb e5bd eca6 c2bd 8bd9 c8bd

layers.0.bias f4 [64]
0.00016061876 -0.08908764 -0.24223955 -0.24421717 0.016485 0.03540056 -0.039148465 -0.30396175
0.11738491 0.0015804945 0.0017292112 0.07576561 -0.11142582 0.044939555 -0.06267114 0.119106844
0.03012972 0.0005479919 0.16888088 -0.12971425 -0.057796676 0.003800009 -0.26721582 0.03285128
-0.3229608 0.1411916 -0.36401027 -0.38854238 0.0327091 0.14762364 0.04533165 0.15062547
-0.06573122 -0.000611837 -0.0010390199 0.123880774 -0.247292 0.00038373136 0.0007406293 0.00031948055
0.02983522 0.050506476 -0.383176 0.03859309 -0.14720953 0.027878039 -0.33410013 -0.15635043
0.008591191 0.013647746 -0.19015485 -0.22235613 -0.007718976 0.20074329 0.08112354 -0.05164907
-0.027095882 0.06955381 0.017135365 -0.02058208 0.121869504 0.051177226 -0.07780407 -0.11250825
00000000: c56b 2839 9573 b6bd a50d 78be 1114 7abe
00000010: 8d0b 873c 2d00 113d 245a 20bd e0a0 9bbe
00000020: 8067 f03d 9828 cf3a b3a6 e23a 002b 9b3d
00000030: 3833 e4bd 8a12 383d ba59 80bd 4aee f33d
00000040: 9ad2 f63c 1da7 0f3a 1cef 2c3e d0d3 04be
00000050: 35bc 6cbd 9209 793b 83d0 88be 108f 063d
00000060: 1e5b a5be 8894 103e 8e5f babe 07ef c6be
00000070: faf9 053d a72a 173e aead 393d 903d 1a3e
00000080: 179e 86bd b063 20ba b92f 88ba 34b5 fd3d
00000090: 1d3a 7dbe 8d2f c939 ca26 423a f47f a739
000000a0: fe68 f43c e1df 4e3d a52f c4be ca13 1e3d
000000b0: 18be 16be 7c60 e43c 2c0f abbe 541a 20be
000000c0: 11c2 0c3c cc9a 5f3c f4b7 42be 53b1 63be
000000d0: 77ef fcbb a68f 4d3e 1924 a63d fa8d 53bd
000000e0: 2ff8 ddbc 3a72 8e3d 775f 8c3c c09b a8bc
000000f0: b896 f93d 369f 513d be57 9fbd ba6a e6bd

layers.2.weight f4 [32, 64, 3, 3]
-0.0051725544 -0.0032690607 -0.0130074 -0.0024823165 -0.0058218064 -0.01719992 -0.00249548 -0.013886686
-0.019217648 -0.0008862703 -0.00406497 -0.0057586036 -0.0023972103 -0.0075214966 -0.010450894 -0.003394737
-0.0074404613 -0.010022792 -0.013999058 -0.0051551745 -0.010787333 -0.0069615943 -0.00051874714 -0.010806621
-0.0047991173 -0.0028585996 -0.002674674 -0.026233412 -0.01695108 -0.010049661 0.00010512164 -0.02559467
-0.010577386 -0.014245352 -0.005705184 -0.0060623474 -0.0007136686 0.0017670048 0.0016368971 -0.0022112972
-0.000143787 -0.0003728656 -0.0040131174 -0.0035936686 -0.0036298074 -0.026140818 -0.013851809 -0.030334141
-0.025444677 -0.026432402 -0.018239096 -0.03202873 -0.016453072 -0.026325231 -6.3031934e-05 -0.009039163
-0.0054131295 0.0024194329 -0.0037670268 -0.005236508 0.00063778035 -0.0039567957 -0.004250924 -0.037849165
-0.01107765 -0.0338815 -0.028846467 -0.011152719 -0.011078042 -0.004318714 -0.037299704 -0.035530597
-0.01956145 -0.022263277 -0.015458321 -0.027401643 -0.01872781 -0.021773703 -0.03824945 -0.013896136
-0.012499389 -0.00761871 -0.010486526 -0.0133699505 -0.008241186 -0.015059605 -0.010776493 -0.016825754
-0.01773644 -0.008613832 -0.004810811 -0.017438337 -0.023129934 -0.010080998 -0.012416187 -0.027667096
-0.0061745103 -0.008531234 -0.013129899 -0.010807093 -0.012031126 -0.034249205 -0.035248816 -0.011551595
-0.02499798 -0.019894557 -0.01421098 -0.030759305 0.0007723714 0.0033114378 -0.0028519814 -0.0029095174
-0.0003729826 -0.010033327 -0.001936663 -0.0008827079 -0.008654491 -0.013861644 -0.0061338414 -0.0038825332
-0.014838307 -0.010255647 -0.016336469 -0.019326853 -0.018026315 -0.010896226 -0.0077068997 -0.008637888
-0.015523206 -0.0047871494 -0.0038112912 -0.011484866 -0.0010609664 0.00092730485 -0.0032082647 -0.0026235846
-0.0030994343 -0.004238159 -0.00235108 -0.0032195589 -0.0039006453 -0.005555496 -0.005908734 -0.007749711
-0.007493553 -0.0012123003 -0.009955296 -0.010524749 -0.010194722 -0.0077656377 -0.009935843 -0.007807639
-0.00485506 0.0052541494 0.0153067075 0.00995388 0.0009730297 0.01218666 0.0042313095 -0.011702539
0.0062199836 0.012217318 -0.046023145 -0.002747022 -0.00982029 -0.015484832 -0.020638324 -0.02939004
-0.025790097 -0.022926655 -0.033355206 -0.012828447 -0.0120397825 -0.011196417 -0.0061458633 -0.0040565645
-0.016607553 -0.004949548 -0.0004039686 -0.014769887 -0.013071402 -0.019208027 -0.016636623 -0.007705036
-0.007716881 -0.010755503 -0.0039185775 -0.019241994 -0.02476182 -0.0055111106 -0.04135064 -0.0013160027
-0.01504595 -0.032005772 0.000100631434 -0.032264065 -0.028537061 -0.025885502 -0.0048386166 -0.0024551242
-0.001100147 -0.0038786065 -0.002125973 -0.00071372837 -0.0026636203 -0.0011874575 -0.00043373843 -0.0101170745
-0.009096145 -0.0123277 -0.0031090917 -0.002057319 -0.011813303 -0.006635436 0.0028801386 -0.0116928015
-0.02474345 -0.022775551 -0.026046308 -0.024655098 -0.025867516 -0.028024796 -0.020015333 -0.02287047
-0.026970038 -0.028812103 -0.01992746 -0.009322406 -0.010479196 -0.03460014 -0.03286741 -0.03927247
-0.021286508 -0.044283934 -5.1350626e-06 1.9252411e-05 3.3149838e-05 -1.8837065e-06 7.359176e-06 5.1644893e-05
-7.0829497e-06 1.38680525e-05 8.668598e-05 -5.35919e-08 1.2205076e-06 9.527403e-06 5.9350684e-09 4.830339e-07
4.620198e-06 1.1689261e-08 3.089564e-07 2.7697326e-06 -0.0013027769 -0.0013981161 -0.0013757616 -0.0017724299
00000000: 887e a9bb bd3d 56bb fd1c 55bc 5cae 22bb
00000010: dac4 bebb d9e6 8cbc 358b 23bb fc84 63bc
00000020: 546e 9dbc 9854 68ba 7133 85bb abb2 bcbb
00000030: 841a 1dbb e376 f6bb 3a3a 2bbc 3c7a 5ebb
00000040: 1dcf f3bb a336 24bc 4e5c 65bc bdec a8bb
00000050: 5bbd 30bc 161e e4bb 88fc 07ba 410e 31bc
00000060: ea41 9dbb 5857 3bbb 9549 2fbb 74e7 d6bc
00000070: fedc 8abc 55a7 24bc c074 dc38 eaab d1bc
00000080: c64c 2dbc 5665 69bc 8df2 babb a8a6 c6bb
00000090: 7d15 3bba d89a e73a 278d d63a 69eb 10bb
000000a0: 87c5 16b9 2c7d c3b9 7880 83bb c183 6bbb
000000b0: 10e2 6dbb 4525 d6bc b3f2 62bc 4e7f f8bc
000000c0: 5b71 d0bc c488 d8bc 286a 95bc 8f30 03bd
000000d0: 98c8 86bc 03a8 d7bc 0330 84b8 ff18 14bc
000000e0: 9f60 b1bb 598f 1e3b 39e0 76bb 0397 abbb
000000f0: b730 273a 02a8 81bb 564b 8bbb ba07 1bbd
00000100: 087f 35bc 54c7 0abd 6d4f ecbc e5b9 36bc
00000110: ad80 35bc 0084 8dbb 93c7 18bd 8888 11bd
00000120: 563f a0bc 7a61 b6bc e644 7dbc 6979 e0bc
00000130: 106b 99bc c45e b2bc 75ab 1cbd 9eac 63bc
00000140: 3dca 4cbc 5fa6 f9bb aecf 2bbc a30d 5bbc
00000150: 0a06 07bc 90bc 76bc e38f 30bc 2ad6 89bc
00000160: 034c 91bc 0821 0dbc 02a4 9dbb d8da 8ebc
00000170: fd7a bdbc c52a 25bc 436d 4bbc 1ba6 e2bc
00000180: 8c53 cabb 97c6 0bbc ca1e 57bc 3c10 31bc
00000190: 331e 45bc e548 0cbd 1061 10bd e742 3dbc
000001a0: 90c8 ccbc e9f9 a2bc 2cd5 68bc f0fa fbbc
000001b0: f878 4a3a b504 593b 4fe8 3abb 9aad 3ebb
000001c0: e18c c3b9 d362 24bc a0d7 fdba 8665 67ba
000001d0: 91cb 0dbc f31b 63bc 64fe c8bb 1972 7ebb
000001e0: 5f1c 73bc 4d07 28bc 0fd4 85bc 5953 9ebc
000001f0: ecab 93bc 1686 32bc 298a fcbb ee85 0dbc
00000200: 0c55 7ebc 85dd 9cbb dbc6 79bb 052b 3cbc
00000210: 2010 8bba 6016 733a c041 52bb 72f0 2bbb
00000220: e11f 4bbb 41e0 8abb 9414 1abb 3cff 52bb
00000230: f8a1 7fbb e10a b6bb 0e9e c1bb 4af1 fdbb
00000240: 7b8c f5bb 0ce6 9eba 8a1b 23bc ff6f 2cbc
00000250: c307 27bc e476 febb f2c9 22bc 39d7 ffbb
00000260: 3217 9fbb 002b ac3b fcc8 7a3c 9915 233c
00000270: eb12 7f3a 8faa 473c cca6 8a3b 02bc 3fbc
00000280: 01d1 cb3b 252b 483c c482 3cbd 6207 34bb
00000290: 48e5 20bc 18b4 7dbc b411 a9bc 62c3 f0bc
000002a0: c145 d3bc aed0 bbbc 789f 08bd 682e 52bc
000002b0: 8242 45bc 2d71 37bc 3d63 c9bb eeec 84bb
000002c0: 900c 88bc d12f a2bb bfcb d3b9 65fd 71bc
000002d0: 6f29 56bc 275a 9dbc 8749 88bc 877a fcbb
000002e0: e4dd fcbb d937 30bc 6967 80bb 63a1 9dbc
000002f0: 4dd9 cabc 8c96 b4bb 4a5f 29bd b97d acba
00000300: 4a83 76bc 7c18 03bd 170a d338 5327 04bd
00000310: 8ec6 e9bc d50d d4bc 428d 9ebb 26e6 20bb
00000320: cf32 90ba 3830 7ebb e953 0bbb 8019 3bba
00000330: 2290 2ebb 76a4 9bba 6367 e3b9 16c2 25bc
00000340: ff07 15bc 1ffa 49bc e7c1 4bbb 16d4 06bb
00000350: 968c 41bc 126e d9bb b5c0 3c3b 2a93 3fbc
00000360: c7b2 cabc cb93 babc 115f d5bc 7df9 c9bc
00000370: 1de8 d3bc 4294 e5bc 32f7 a3bc da5a bbbc
00000380: 45f0 dcbc 5c07 ecbc ea3e a3bc 01bd 18bc
00000390: efb0 2bbc e0b8 0dbd fa9f 06bd 2bdc 20bd
000003a0: 0b61 aebc 1263 35bd da4d acb6 3d80 a137
000003b0: 5e0a 0b38 aad3 fcb5 d7ee f636 489d 5838
000003c0: 13aa edb6 d5aa 6837 2ecb b538 eb2c 66b3
000003d0: 52d0 a335 e2d7 1f37 6aed cb31 d6a9 0135
000003e0: 3307 9b36 ead1 4832 a5de a534 a5df 3936
000003f0: f0c1 aaba fe40 b7ba e652 b4ba e150 e8ba

layers.2.bias f4 [32]
-0.04323367 0.01664622 -0.009906757 0.115797155 0.033453733 -0.027169993 0.029982308 -0.11374738
-0.014881499 -0.008729722 0.046213754 0.026859252 -0.02983016 -0.024002412 -4.5118295e-06 0.009409279
0.037291914 -0.036158416 0.009503539 -0.022185478 -0.021428738 -0.043382768 -0.010879016 -0.011217326
-0.25658613 0.04470911 0.0069726994 0.0060959826 -0.023471592 0.15389086 -0.13189676 -0.0059289816
00000000: ca15 31bd a75d 883c f34f 22bc 0f27 ed3d
00000010: c806 093d 9b93 debc 759d f53c 63f4 e8bd
00000020: 88d1 73bc 1c07 0fbc a24a 3d3d ef07 dc3c
00000030: 615e f4bc b5a0 c4bc 5264 97b6 6029 1a3c
00000040: 68bf 183d d91a 14bd bbb4 1b3c 52be b5bc
00000050: 528b afbc 21b2 31bd e63d 32bc e0c8 37bc
00000060: 425f 83be e620 373d 3e7b e43b cfc0 c73b
00000070: 7f47 c0bc 9195 1d3e f20f 07be e747 c2bb

layers.4.weight f4 [32, 32, 3, 3]
3.2053413e-05 0.00060877803 -0.0005716662 -0.00085784646 0.0007649212 0.00035423017 3.273105e-05 0.0006439726
-0.00010335942 0.010756473 0.004349808 -0.0058444785 0.018727435 -0.0040624943 0.0008429334 -0.023541013
-0.015607064 -0.011624491 -1.97604e-40 -6.03458e-40 6.16042e-40 6.00817e-40 1.29078e-40 -3.0945e-40
3.23062e-40 4.30217e-40 1.87462e-40 -0.0047576204 -0.0059173238 -0.005052058 -0.0032101858 -0.0031611093
-0.0041511618 -0.003337657 -0.005294011 -0.0031038641 -0.0006328469 0.0022806777 -0.005784169 -0.0023558214
-0.0013364176 -0.0012423953 -0.0023812598 -0.0006727683 -0.0023794714 -3.9309796e-07 -2.3261048e-06 -3.4834304e-06
-3.2920832e-06 -6.527807e-06 -5.3222607e-06 -1.2767862e-05 -2.038477e-05 -2.4493402e-05 1.056213e-09 -3.077286e-11
5.154069e-12 -1.10078814e-10 1.3367528e-12 -2.4322268e-13 -1.2548952e-09 -4.119332e-11 7.9953237e-13 0.0035973103
0.004983072 0.005106888 0.0018155591 -0.007123733 -0.0166569 -0.022054473 -0.0004883147 0.0030490158
1.4307114e-05 8.386522e-06 1.9483334e-05 -1.285854e-05 1.2040204e-06 -7.849655e-06 -3.6372014e-06 8.534506e-07
1.9987476e-06 -0.000117176416 0.0002806111 0.00024203087 0.0003546138 0.00037959084 0.00022768846 -0.0002131162
0.0002899652 -6.805044e-05 0.013159332 0.023605164 0.013394747 -0.0074635497 -0.016598174 0.004712606
0.0066868947 -0.019187454 -0.0033117703 -0.0022149654 -0.002161367 -0.0020505704 -0.001937105 -0.0018755528
-0.001765258 -0.0018325722 -0.0017627382 -0.001650833 0.017133985 0.018074749 -0.020601483 0.002670967
-0.01299549 -0.03724273 -0.012439561 -0.031078639 0.0032391052 -0.012288471 -0.007142511 0.0008764827
-0.006765045 -0.008598792 -0.009545185 0.00048379198 0.0065361746 -0.004221922 -6.39625e-40 -8.5474e-41
1.670882e-39 5.74385e-40 -1.393482e-39 1.157512e-39 -9.32508e-40 1.084126e-39 -3.42863e-40 0.009332031
-0.023074059 0.006443633 -0.018929074 0.014690465 -0.021964349 0.014612017 -0.012477874 0.013734779
1.9876542e-07 2.0197407e-07 1.5196343e-07 2.3887077e-09 3.4766187e-10 -4.011938e-09 1.6056798e-09 3.5089096e-09
1.5509246e-09 0.00014407495 0.014947782 -0.020754594 0.011274577 -0.03586049 -0.0048994445 -0.022355778
0.02272422 0.003522261 8.904058e-07 9.543563e-09 1.1643973e-07 1.5380792e-06 -1.3393569e-06 9.364298e-07
-2.3440342e-07 -4.599668e-07 -8.4153464e-07 -0.0037255415 0.0020929778 -0.0047718296 0.0038651347 0.00091466954
0.0022279755 -0.008254159 0.0022761654 -0.0017289303 0.0084626 -0.0053438903 0.00577528 -0.008761469
-0.006830081 0.004593573 -0.011907482 0.00015561444 -0.012891012 -0.01790879 -0.00054152415 0.014397277
0.0043705315 -0.011063641 0.0020258904 -0.007554661 -0.011163486 -0.015671622 -0.007814832 -0.015972385
0.011632228 -0.028371856 -0.023663186 -0.00013583737 0.0006659331 0.023288287 -0.01742043 9.4357894e-08
-2.0826066e-07 -3.2884049e-07 -1.0190365e-07 -2.3454064e-07 -8.0687755e-08 1.1090067e-07 2.6745735e-08 1.1564263e-07
7.258237e-15 -5.441584e-15 -2.623e-42 -1.84491e-40 8.4627e-40 1.65189e-40 5.44392e-40 1.21975e-40
1.88692e-40 -2.9420269e-06 -6.426978e-06 -6.7022697e-06 -3.5595144e-06 1.9609888e-06 3.1947125e-06 -3.404925e-06
5.070721e-06 3.3967965e-06 -0.00035862045 -0.0037179347 -0.001416873 0.0006401356 0.0029471435 -0.00250097
0.0014870919 -0.00011436834 -0.0013386178 -0.0013423768 -0.0052472027 0.0018660993 0.0043002 -0.0040818118
-0.0054731127 -0.000725998 0.002734558 -0.0038162456 0.031178586 -0.042698693 -0.0007475379 0.017904602
00000000: 1771 0638 6796 1f3a dfdb 15ba 1ae1 60ba
00000010: fe84 483a f8b7 b939 b348 0938 45d0 283a
00000020: abc2 d8b8 eb3b 303c d688 8e3b 0a83 bfbb
00000030: 476a 993c ac1e 85bb 4ef8 5c3a 15d9 c0bc
00000040: c5b4 7fbc a674 3ebc d726 0280 3292 0680
00000050: 46b5 0600 d58a 0600 d167 0100 9f5e 0380
00000060: 9184 0300 45af 0400 910a 0200 d0e5 9bbb
00000070: 1ce6 c1bb bc8b a5bb fb61 52bb 9d2a 4fbb
00000080: 7806 88bb 98bc 5abb 6279 adbb 336a 4bbb
00000090: a3e5 25ba 6c77 153b 2089 bdbb 2064 1abb
000000a0: bc2a afba ded7 a2ba e90e 1cbb b75c 30ba
000000b0: e8f0 1bbb f90a d3b4 2d1a 1cb6 e1c4 69b6
000000c0: 8fed 5cb6 6f09 dbb6 df95 b2b6 8d35 56b7
000000d0: f6ff aab7 2e77 cdb7 312a 9130 2957 07ae
000000e0: ba57 b52c dd10 f2ae 9821 bc2b 15ec 88aa
000000f0: b378 acb0 8e2b 35ae 610c 612b dac0 6b3b
00000100: 0a49 a33b ae57 a73b 0ef8 ed3a 346e e9bb
00000110: 0d74 88bc 95ab b4bc 3f02 00ba ffd1 473b
00000120: 9608 7037 d6b3 0c37 2470 a337 02bb 57b7
00000130: d399 a135 03b2 03b7 a516 74b6 ae18 6535
00000140: 3922 0636 9cbc f5b8 fc1e 9339 abc9 7d39
00000150: 75eb b939 d203 c739 a8bf 6e39 f277 5fb9
00000160: 7806 9839 4db6 8eb8 3d9a 573c 9e5f c13c
00000170: a475 5b3c cb90 f4bb e5f8 87bc 346c 9a3b
00000180: bd1d db3b 022f 9dbc 490a 59bb f428 11bb
00000190: b9a5 0dbb dd62 06bb 75e6 fdba 1cd5 f5ba
000001a0: 3b60 e7ba eb32 f0ba ae0b e7ba c360 d8ba
000001b0: 925c 8c3c 7f11 943c 71c4 a8bc 640b 2f3b
000001c0: 09eb 54bc d58b 18bd 4dcf 4bbc a198 febc
000001d0: 2b47 543b 9555 49bc ba0b eabb c2c3 653a
000001e0: 50ad ddbb f3e1 0cbc 6863 1cbc 76a5 fd39
000001f0: 682d d63b 0c58 8abb 04f7 0680 44ee 0080
00000200: bd31 1200 2741 0600 762c 0f80 ac9a 0c00
00000210: 7427 0a80 1ace 0b00 c3bb 0380 60e5 183c
00000220: cf05 bdbc 1d25 d33b 2511 9bbc 47b0 703c
00000230: 94ee b3bc 3e67 6f3c ff6f 4cbc d707 613c
00000240: 396c 5534 36de 5834 642b 2334 9726 2431
00000250: 0f21 bf2f 61d9 89b1 d6ae dc30 6421 7131
00000260: 4f28 d530 d312 1739 8be7 743c 8a05 aabc
00000270: 01b9 383c 73e2 12bd 858b a0bb 7723 b7bc
00000280: 2528 ba3c bcd5 663b 3804 6f35 09f5 2332
00000290: 6b0d fa33 0070 ce35 f4c3 b3b5 f75e 7b35
000002a0: 52b0 7bb4 5bf1 f6b4 d2e5 61b5 3728 74bb
000002b0: 572a 093b 025d 9cbb 334e 7d3b 6fc6 6f3a
000002c0: 3a03 123b 743c 07bc b82b 153b 469d e2ba
000002d0: b8a6 0a3c cd1b afbb 8f3e bd3b 448c 0fbc
000002e0: dfce dfbb af85 963b 9917 43bc 6f2c 2339
000002f0: d334 53bc 74b5 92bc 12f5 0dba 8ee2 6b3c
00000300: ad36 8f3b 4644 35bc cdc4 043b 178d f7bb
00000310: 0ee7 36bc c661 80bc c809 00bc 85d8 82bc
00000320: 1a95 3e3c 186c e8bc 4cd9 c1bc 916f 0eb9
00000330: 0492 2e3a 14c7 be3c 4ab5 8ebc cda1 ca33
00000340: 419e 5fb4 7e8b b0b4 20d6 dab3 0ad6 7bb4
00000350: 9046 adb3 4a28 ee33 7ebe e532 3557 f833
00000360: b6c0 0228 c10d c4a7 5007 0080 4902 0280
00000370: 0e37 0900 7bcc 0100 8bed 0500 0454 0100
00000380: ff0d 0200 a36f 45b6 52a7 d7b6 0fe4 e0b6
00000390: fedf 6eb6 8899 0336 be64 5636 2b80 64b6
000003a0: 2925 aa36 85f4 6336 3905 bcb9 98a8 73bb
000003b0: 5eb6 b9ba c6ce 273a dd24 413b 50e7 23bb
000003c0: 86ea c23a 09d9 efb8 8f74 afba b1f2 afba
000003d0: baf0 abbb e797 f43a b1e8 8c3b b8c0 85bb
000003e0: cc57 b3bb e750 3eba 4536 333b fa19 7abb
000003f0: 3c6a ff3c d3e4 2ebd 6bf6 43ba acac 923c

layers.4.bias f4 [32]
-0.02396818 0.023197168 -0.08911562 -0.004237937 -0.040940154 0.21019119 0.01914806 0.08958495
-4.213085e-06 -0.041470587 -0.048803937 -0.007620726 0.17982131 -0.019354895 -0.050234646 -0.0052152937
0.00580936 -8.105395e-09 0.013270229 -0.0024897465 0.041930966 -0.016912948 -3.165813e-11 -0.024961252
0.007847489 -0.018655472 0.028925603 0.2250312 -1.0864154e-16 -0.020155583 -0.005395863 0.05599291
00000000: eb58 c4bc fd07 be3c 4082 b6bd 64de 8abb
00000010: ddb0 27bd 5c3c 573e 64dc 9c3c 5078 b73d
00000020: 205e 8db6 10dd 29bd a3e6 47bd 48b7 f9bb
00000030: 1423 383e 288e 9ebc d8c2 4dbd 0ee5 aabb
00000040: 725c be3b e73f 0bb2 606b 593c 042b 23bb
00000050: cebf 2b3d 068d 8abc e33b 0bae 8a7b ccbc
00000060: c192 003c 5cd3 98bc 63f5 ec3c 946e 663e
00000070: a582 faa4 521d a5bc c8cf b0bb d258 653d

layers.6.weight f4 [3, 32, 1, 1]
-0.06497959 -0.08016278 -0.026286263 -5.3126387e-10 -0.0033245974 0.36590892 -0.10192529 0.31362247
2.3113705e-27 -0.00058911584 0.014706356 4.22583e-40 0.25515717 -7.0186934e-07 0.09213892 0.0043596756
-0.005000705 7.13447e-40 -0.027391186 -0.21460058 -0.17210537 -0.03947372 3.9391e-40 0.004408451
0.05456712 0.043554362 -0.024707556 0.22634692 -7.07806e-40 0.06999115 -8.6775e-41 -0.10509639
-0.090414986 0.21596733 0.49637488 1.00307695e-19 -0.01804396 -0.019735565 -0.12183768 0.16733098
-0.009580014 0.13007271 0.14267913 -0.017322795 0.22356066 0.06264466 -0.046113603 -0.009798488
-0.010793004 -4.49731e-40 0.1564508 0.29214558 -0.0717559 -0.050228015 -6.93365e-40 -0.015196754
0.022738475 0.28165382 0.22369665 0.39604348 4.586767e-23 0.02253342 -0.008254695 0.2085673
-0.051455237 -0.016461307 -0.0031736814 1.4190313e-07 -0.007998296 0.024262318 -0.13365233 -0.009013981
6.67601e-40 0.0508291 -0.023660695 -7.9524e-40 -0.054307487 0.00025712475 -0.0009001383 0.004174322
-0.011549568 -4.96026e-40 0.0019796467 -0.00040321716 0.02910601 -0.018768756 7.9026e-41 1.12416e-40
0.14081302 -0.003298154 -0.027799107 0.029146982 3.65564e-40 -4.8509e-41 -3.43726e-40 -0.03660133
00000000: 0514 85bd 622c a4bd 4a56 d7bc 5f08 12b0
00000010: 7de1 59bb 6a58 bb3e 35be d0bd 2093 a03e
00000020: 2a20 3713 e56e 1aba eef2 703c fd99 0400
00000030: f6a3 823e 1868 3cb5 55b3 bc3d 9cdb 8e3b
00000040: f4dc a3bb cdc4 0700 7b63 e0bc 41c0 5bbe
00000050: 643c 30be 32af 21bd 104a 0400 c474 903b
00000060: c681 5f3d 0f66 323d 8067 cabc 7dc7 673e
00000070: 13b5 0780 8557 8f3d e5f1 0080 c73c d7bd
00000080: 7e2b b9bd 8a26 5d3e d924 fe3e 48d8 ec1f
00000090: edd0 93bc 7bac a1bc 0986 f9bd d058 2b3e
000000a0: 7ef5 1cbc c831 053e 7a1a 123e 89e8 8dbc
000000b0: 16ed 643e d84b 803d 9ee1 3cbd d689 20bc
000000c0: 24d5 30bc abe5 0480 a334 203e 1b94 953e
000000d0: c2f4 92bd e4bb 4dbd d28c 0780 cefb 78bc
000000e0: 0a46 ba3c ee34 903e bc10 653e 36c6 ca3e
000000f0: 6dcd 5d1a 0298 b83c b33e 07bc ab92 553e
00000100: bac2 52bd ddd9 86bc 8afd 4fbb 095e 1834
00000110: 490b 03bc c5c1 c63c 28dc 08be 60af 13bc
00000120: 0045 0700 2d32 503d 13d4 c1bc cea8 0880
00000130: 8771 5ebd b3ce 8639 42f7 6bba c0c8 883b
00000140: 663a 3dbc b866 0580 f6bc 013b e466 d3b9
00000150: ba6f ee3c efc0 99bc 4bdc 0000 5f39 0100
00000160: 4a31 103e d825 58bb f4ba e3bc a7c5 ee3c
00000170: 0bfb 0300 3987 0080 2bbe 0380 47eb 15bd

layers.6.bias f4 [3]
0.11410347 0.094666004 0.018080868
00000000: 15af e93d 40e0 c13d 541e 943c

layers.8.weight f4 [5, 3, 1, 1]
-0.20286575 0.55344 8.181817e-24 1.25011e-40 -3.1048401e-15 4.1872544e-11 6.84907e-40 -0.018609418
1.368232e-39 0.84758335 0.0016889129 -0.06712479 -0.28947705 -0.40585822 0.37233445
00000000: 0abc 4fbe 3eae 0d3f 6542 1e19 7b5c 0100
00000010: 31ba 5fa7 4b28 382e 3e75 0700 c772 98bc
00000020: 13e6 0e00 39fb 583f 835e dd3a b978 89bd
00000030: 5636 94be a6cc cfbe 9fa2 be3e

layers.8.bias f4 [5]
-0.33407438 -3.2665806e-10 -0.019525047 -0.011521397 0.021660697
00000000: cc0b abbe 0995 b3af fef2 9fbc 3ec4 3cbc
00000010: c671 b13c
