proj4/best_model.pth (torch_old, 511458 bytes, 8 tensors)

conv1.weight f4 [32, 1, 5, 5]
000000 06 d1 23 be ae f2 0b 3e 87 90 52 bd 33 85 d2 3d
       -0.15997705 0.13666794 -0.051407363 0.10279312
000010 3f 03 9c bb b6 49 e3 3d 95 e8 6d 3e ff cd 85 bc
       -0.004761129 0.110980436 0.23233254 -0.016333578
000020 b4 00 06 be b2 dc 40 bd 18 7d 49 be 4d cc 74 be
       -0.13086206 -0.04708547 -0.19676626 -0.2390606
000030 e9 ee 3c be fb 45 37 be 0b ad cf 3d 47 cd 73 be
       -0.18450512 -0.17897789 0.10140427 -0.23808776
000040 49 69 ea 3d e5 22 a7 3e 0f a7 b2 3e da bd 32 3e
       0.11445863 0.3264381 0.3489308 0.17455235
000050 08 22 8a 3d c4 3d 29 3e d7 74 77 3c 7d 24 55 be
       0.06744772 0.16527468 0.01510354 -0.208147
000060 28 cf 72 be 78 19 36 3e 29 42 25 be 06 d3 82 be
       -0.23711836 0.17783153 -0.1613852 -0.25551623
000070 92 c0 cb 3d bd e8 e5 bd bc c3 98 3e 75 86 11 be
       0.09948839 -0.11226032 0.29836833 -0.14211448
000080 7f cd 04 bf 9c 16 8b bd 44 c9 82 be bb 56 bb 3e
       -0.5187606 -0.06791422 -0.25544178 0.36589608
000090 81 52 1a 3d 5d 13 39 be cc 4e 23 3d 42 c3 18 3e
       0.037676338 -0.18073793 0.03987007 0.14918235
0000a0 1d 26 a7 3e cd 9b 03 bd 68 af 17 be 62 40 0c 3e
       0.32646266 -0.032131005 -0.14813006 0.13696435
0000b0 77 02 41 3e 88 3e 54 3e 57 6d 9a 3d e5 0b 91 be
       0.18848597 0.20726979 0.07540386 -0.28329387
0000c0 2a df 1f 3d 5d 36 de 3d db 85 53 3e 02 b1 12 3e
       0.039031185 0.10850213 0.2065653 0.14325336
0000d0 b0 5d 43 3e 15 1b a4 bd d8 19 ee bd a8 87 60 3d
       0.19078708 -0.08012978 -0.11626023 0.054816872
0000e0 de 69 d4 3e 67 bc b5 3e a1 70 86 3d 15 49 d2 bb
       0.4148702 0.35495302 0.06564451 -0.0064174035
0000f0 65 f8 63 be 92 e1 17 bd d4 7f f2 3d 12 f3 cb 3d
       -0.22262724 -0.037080355 0.118407875 0.09958471
000100 de 3a b5 3c 51 77 c0 3a e2 2c 9d be 07 0f 81 be
       0.022122797 0.0014683997 -0.30698305 -0.25206777
000110 16 6c fd 3d 64 6a 44 3d 5c 80 5b bd a4 d5 bb be
       0.123741314 0.047953025 -0.05358921 -0.36686432
000120 d4 ef ba be c1 2d be bd 57 79 0b 3d d5 8f 2d be
       -0.365111 -0.092860706 0.034051266 -0.16949399
000130 d4 96 7b 3e 9f e8 f8 bd 24 bf 41 bd 2b 40 07 3e
       0.24569255 -0.12153744 -0.047301427 0.13208072
000140 cb dd 16 be 89 d6 10 3e cb aa 5d be 97 74 7f be
       -0.14733045 0.14144339 -0.21647184 -0.24946819
000150 7b a4 af bd b0 40 34 3e 1c ea 88 3e 93 ff de bd
       -0.08576294 0.17602801 0.2674111 -0.10888591
000160 c3 e5 88 3e 28 e7 4e 3e 47 52 8a bb a5 72 57 3b
       0.26737794 0.20205367 -0.004221234 0.003287473
000170 ab aa 7e be 28 d6 e3 3d 7c 30 b8 bd 40 b7 bb 3c
       -0.24869792 0.111248314 -0.08993623 0.022914529
000180 10 22 00 be 41 5a ad bd 9d 4c 3f 3e 2a 73 b3 bd
       -0.12512994 -0.0846448 0.1868157 -0.087622
000190 2f a6 4c bd 33 5c 37 bd b9 31 1b be f3 42 a7 be
       -0.049963173 -0.044765662 -0.15155686 -0.32668266
0001a0 92 af 8c be 4c b8 30 3e 29 f7 b0 3c fe a8 41 3e
       -0.274777 0.17257804 0.02160223 0.18912122
0001b0 d2 81 02 be c3 47 89 bb 08 be 0d bd 01 fc 2a 3e
       -0.12744835 -0.004189463 -0.034605056 0.16697694
0001c0 46 c9 db 3d e8 4f 82 3e 05 1b dd 3d cd 8e 8a be
       0.10731749 0.2545159 0.10796169 -0.27062073
0001d0 20 b9 31 3b 9b 6a 21 3d a8 b1 48 3e 68 61 46 3e
       0.00271184 0.039408308 0.1959902 0.19373095
0001e0 a8 8e 8e be 2e 15 e1 bc e7 41 e6 bc ae 23 03 bd
       -0.27843213 -0.02747592 -0.028107597 -0.03201645
0001f0 0a 50 0b 3d 40 8e 77 bd 03 ea 80 3d 38 ff d0 3c
       0.034011878 -0.060438395 0.06294634 0.025512323
000200 58 76 e2 3d f5 a8 8d 3e 5d 32 0a 3b f4 a7 42 3e
       0.110577285 0.27667966 0.0021087148 0.19009382
000210 51 c8 54 3e 0c 46 5a 3e d4 72 39 3e d9 67 f4 bd
       0.2077954 0.21315783 0.1811021 -0.1193387
000220 89 d9 03 be 22 50 57 3d 38 e7 f9 3d e2 00 39 3e
       -0.12875952 0.052566655 0.122023046 0.18066743
000230 84 02 89 be 96 53 93 be 52 49 18 be 67 87 21 3e
       -0.26759732 -0.28774709 -0.1487172 0.15774308
000240 d8 2b 12 3e 1a 3e 2a be 52 81 25 be 7d 01 5f 3d
       0.14274538 -0.16625252 -0.16162613 0.05444478
000250 ff 25 9a 3d 8f 2f cf 3d 0e 97 ab 3c 30 bc 11 3e
       0.075267784 0.10116493 0.020946052 0.14231944
000260 58 1c c4 3b 6e 32 24 bd 59 65 37 3e 9f c9 85 3d
       0.005984824 -0.040087156 0.17909755 0.06532597
000270 d2 5b e3 3c 88 93 05 3e 9e a2 87 be 59 ee 44 3e
       0.027753744 0.1304456 -0.26491255 0.19231547
000280 60 82 de bc b6 c8 5f 3e 3c 9a 96 3d 24 9a fe be
       -0.027161777 0.21853909 0.073536366 -0.49726975
000290 50 ed 2a 3e b9 4f 8c bc a0 4c 95 3e 44 73 55 3e
       0.1669209 -0.017127858 0.29160023 0.20844752
0002a0 7c 2d 1f bf 1b cd e9 bd 38 26 7f 3d 01 24 70 3d
       -0.6217878 -0.11416074 0.062292308 0.058628086
0002b0 27 86 17 3e 35 b5 b0 be 7f 73 45 bd 44 ad 9f bd
       0.14797269 -0.3451325 -0.04820585 -0.0779672
0002c0 47 03 80 bd 93 72 6c bd da d8 00 3e 5d 68 f7 3d
       -0.06250625 -0.057726454 0.12582722 0.120804526
0002d0 98 3b bf bd a4 be e5 bd 0f e6 c4 3d 70 ae d1 3d
       -0.093375385 -0.112180024 0.09614193 0.102383494
0002e0 34 2b ed 3d 61 58 a5 3c 1f 54 81 bc bc dc a5 3b
       0.11580506 0.020183744 -0.015787182 0.005061714
0002f0 59 70 1f 3e d9 24 b2 ba 87 f0 78 3c c7 22 e7 3d
       0.15570201 -0.0013591304 0.015194065 0.1128593
000300 f2 c8 37 3e 87 b7 95 3d f8 f8 69 be 8a 99 5c 3d
       0.17947748 0.07310396 -0.2284888 0.053857364
000310 2f d8 57 3e 51 e8 0f 3d 46 ee a7 be 16 23 69 be
       0.21078561 0.035133664 -0.32798976 -0.2276729
000320 67 d6 80 3d ea 30 84 3e 1d bc 91 3e 3e 7e 20 3e
       0.06290894 0.25818568 0.28463832 0.15673158
000330 b7 89 55 be 41 e2 24 bd 2d 25 7c 3c 2a 65 2b 3e
       -0.20853315 -0.040254835 0.015389723 0.1673781
000340 c8 78 a3 3d d7 af d8 bd 41 d9 98 bc c9 68 93 be
       0.079820216 -0.10580414 -0.018658282 -0.28790882
000350 6f 90 96 be 2f f3 ac bc 2a 0a 57 3e 75 e7 63 3d
       -0.2940707 -0.021112053 0.20999971 0.055640657
000360 04 30 31 be ac 99 b1 be 3e ca f9 bd 8e 6b 2d 3e
       -0.17303473 -0.34687555 -0.12196778 0.1693556
000370 eb 71 3c 3d 58 d3 1c 3e 0d 29 f6 3c 6f 94 37 bd
       0.04600708 0.15314996 0.030048871 -0.04481929
000380 6d 8f fe bb 5d 57 64 3e 9e e7 cc 3d e8 b2 8b 3e
       -0.0077685625 0.22298951 0.10005115 0.27284932
000390 ee d0 46 3e 42 48 3a bd 2e 41 10 3e ef 81 a9 3d
       0.19415638 -0.045479067 0.14087364 0.08276736
0003a0 4e b9 c1 3d e6 3a 26 3e 39 c0 55 3d 29 96 da bd
       0.09459172 0.16233405 0.05218527 -0.10673172
0003b0 66 05 32 be 48 60 50 be 99 d5 bc 3d 7c cb 19 3e
       -0.17384872 -0.20349228 0.09220428 0.1501903
0003c0 91 bb 0f be 20 89 50 be f1 3c ba be ae c4 5b be
       -0.14036395 -0.20364809 -0.3637462 -0.21461746
0003d0 ab f4 74 bd f4 f3 23 bd 7f 40 0e be 6a bd 4a be
       -0.059803646 -0.040027574 -0.13891791 -0.19798818
0003e0 0e ed 75 be 9b da 72 bb f3 93 23 bd a5 57 41 3e
       -0.2401621 -0.0037056569 -0.039936017 0.1888109
0003f0 35 e8 20 bd 60 39 b3 3d d0 df 41 3e dc fc 2b 3d
       -0.03928395 0.08751178 0.18933034 0.041989192

conv1.bias f4 [32]
000000 b4 33 0b bd 60 7b 1f bd c5 55 12 3d e8 61 43 bb
       -0.033984855 -0.03893602 0.035726327 -0.0029812995
000010 69 27 3c 3e 7b 37 5b be fb bd 9c bc f0 c1 0a be
       0.18374409 -0.21407883 -0.019133558 -0.13550544
000020 30 d1 3a bc 47 8b 85 be 4c d7 81 3d 2b b5 9a be
       -0.011402413 -0.26082823 0.06339893 -0.30216345
000030 61 43 f6 3b 18 01 57 be 8e 29 53 3c 75 8b 90 3d
       0.0075153564 -0.20996511 0.012888325 0.07057849
000040 c8 3e c0 3c b9 d7 de bb ef 23 06 bd 0b 49 75 3d
       0.023467436 -0.0068006185 -0.032749113 0.059884112
000050 4a f1 50 be 75 79 78 bd 41 98 af bb e0 ae ab be
       -0.20404544 -0.060662705 -0.0053587263 -0.33531857
000060 05 32 0d bb 26 dd ad bc 25 d7 1c bc 87 d5 ea 3c
       -0.0021544707 -0.021223616 -0.009572779 0.02866627
000070 31 04 a2 bc 96 9f c4 bd b5 5b 15 be 56 14 9d be
       -0.01977739 -0.09600751 -0.14585765 -0.30679578

conv2.weight f4 [32, 32, 5, 5]
000000 9c 55 7d 38 cf 7c 9c 38 52 98 cf b8 2d 5e 33 b9
       6.039963e-05 7.461907e-05 -9.898901e-05 -0.00017105853
000010 f1 f9 1f b9 f5 a1 ba 38 e9 c6 9e 38 13 21 00 b8
       -0.00015256532 8.899338e-05 7.571077e-05 -3.054838e-05
000020 8e 07 3e b9 bb ff 2c b9 7d ab 61 38 24 e4 4c b9
       -0.00018122626 -0.00016498465 5.380389e-05 -0.00019539945
000030 5f 7a a9 39 3e 6c 80 39 a9 21 9e 39 3b e4 66 b7
       0.00032325365 0.0002449471 0.00030161187 -1.3762207e-05
000040 2f a3 10 38 86 1b ae 39 1c 31 89 39 4f 28 80 39
       3.4484252e-05 0.00033208373 0.00026167266 0.00024444095
000050 f3 8d 99 38 e2 49 2c b9 29 87 8d 39 dc 11 3f b9
       7.3220486e-05 -0.00016430722 0.00026994318 -0.00018221833
000060 62 ab 17 b9 4d 1c 1c ba 8e fb 77 39 21 8d 8b 39
       -0.00014464327 -0.0005955145 0.00023649467 0.00026617295
000070 53 32 b2 39 d7 e9 29 bb b3 38 48 bb 4f 3d a3 ba
       0.000339883 -0.0025926733 -0.0030551373 -0.0012454184
000080 ca 4f 23 39 80 43 f6 b8 12 0d 59 bb 3b 4b 36 bb
       0.00015574615 -0.00011742767 -0.0033119363 -0.0027815837
000090 c2 85 9b ba 54 2e 2b b9 89 31 a1 b8 bc 76 7d bb
       -0.0011865424 -0.0001632509 -7.686305e-05 -0.0038675508
0000a0 d5 6c d8 ba 32 01 8f ba 4c 19 dd b9 83 1e a1 39
       -0.0016511927 -0.001091039 -0.00042171252 0.00030731046
0000b0 4a b7 25 bb 70 50 08 ba 7b 50 8c b9 40 37 df 38
       -0.002528625 -0.00051999744 -0.00026762843 0.0001064376
0000c0 eb 2f 7d 39 f0 da ec b9 42 f6 a0 39 af ab b6 39
       0.00024145811 -0.0004517655 0.00030701054 0.0003484166
0000d0 18 39 52 39 4e 71 b9 39 a7 1e 3d 38 ca fa 9b b6
       0.0002004843 0.00035370368 4.508966e-05 -4.6485557e-06
0000e0 76 f9 ff 36 2d 9b 04 b9 10 29 fd 38 06 db 9e 38
       7.6286333e-06 -0.00012646308 0.000120716286 7.5748234e-05
0000f0 91 8a ae 39 da c6 8e 39 8c 01 1f ba b8 41 df ba
       0.00033291106 0.00027232507 -0.0006065599 -0.0017033136
000100 2e b6 36 39 dd 9a 7b 39 a1 d1 d7 b9 df e7 a4 ba
       0.0001742474 0.00023994916 -0.0004116418 -0.001258131
000110 7f 38 8e ba 38 8d 76 ba 2d 8c 42 b9 0d 22 48 b9
       -0.0010850577 -0.00094051985 -0.00018553501 -0.00019086171
000120 8a e4 c3 39 d0 fa 90 39 ae 9c 82 39 2e 7d 7a 38
       0.00037363573 0.0002765269 0.00024912268 5.9721227e-05
000130 bc 1b 14 37 cc 8e f1 b8 c1 e3 26 38 7b 36 f6 37
       8.827945e-06 -0.000115183735 3.9789596e-05 2.9350855e-05
000140 b5 df ee b8 82 19 e6 b8 5f 6f 1d b9 9b e6 38 b8
       -0.00011390393 -0.00010972006 -0.00015014176 -4.4083787e-05
000150 45 69 2d b9 ea 6d 38 b9 a6 20 3b 39 90 a4 e7 b8
       -0.00016537782 -0.00017588554 0.00017845872 -0.000110455905
000160 c2 03 0c b9 0d b8 a7 38 db 61 0b 38 71 d7 65 39
       -0.0001335284 7.997463e-05 3.3231318e-05 0.000219194
000170 dd e0 9a 38 e3 c7 32 b8 99 04 be 38 15 a2 37 b9
       7.385176e-05 -4.2624666e-05 9.0607624e-05 -0.0001751262
000180 b2 4e d2 b8 2d 3b 40 b9 2a a8 fb 37 99 17 83 38
       -0.000100282385 -0.00018332592 2.999984e-05 6.250962e-05
000190 20 13 22 b9 64 08 81 39 79 c4 79 ba 7a c2 19 ba
       -0.00015456649 0.0002461105 -0.0009527873 -0.0005865466
0001a0 19 f2 7f 38 2b 7e 97 39 af ac 8d 39 30 9e 88 ba
       6.102221e-05 0.00028894967 0.00027022275 -0.001042312
0001b0 d7 0b fc 38 30 0d 87 39 5e 3b 99 b8 4d 67 94 ba
       0.00012018502 0.00025759032 -7.3066665e-05 -0.001132229
0001c0 e7 83 43 bb 05 9f 02 bb 1d 9a b0 ba 6c 50 08 b9
       -0.0029833259 -0.0019931209 -0.0013473664 -0.0001299993
0001d0 ab 42 45 ba f8 bd 1d bb 35 e5 9c ba be 5c bc ba
       -0.0007524888 -0.002406953 -0.0011970164 -0.0014370901
0001e0 f8 42 78 39 5b 15 ae 39 83 06 f7 b9 70 20 14 39
       0.00023676071 0.00033203777 -0.00047116363 0.00014126464
0001f0 8e 36 a8 39 05 44 83 39 d3 41 1c ba c8 25 8c bb
       0.00032084103 0.00025036946 -0.00059607363 -0.004276965
000200 e8 11 14 bb db 66 51 b9 35 08 09 39 6d 01 16 ba
       -0.002259368 -0.0001997011 0.00013068395 -0.00057222584
000210 0c fd 95 bb 14 60 eb ba 94 90 bc b9 c1 01 d6 b9
       -0.0045772847 -0.0017957711 -0.00035965873 -0.00040818568
000220 c4 a4 58 bb cf 5a b3 bb 30 d9 89 bb 86 44 e5 ba
       -0.0033057192 -0.0054734717 -0.004206799 -0.0017491735
000230 d1 84 87 ba 92 e9 52 bb 7e 47 b1 bb e5 1e 94 bb
       -0.0010339265 -0.0032182676 -0.005410134 -0.0045202845
000240 85 c9 2d bb 20 71 8a ba 08 07 06 bb 79 fc 94 bb
       -0.002651782 -0.0010562278 -0.0020450968 -0.0045466986
000250 e8 f9 44 bb 78 b9 3d ba 61 af b0 39 18 71 16 39
       -0.0030056182 -0.0007237415 0.00033700003 0.00014347245
000260 7f 55 14 b9 5d 94 2f ba e0 26 02 bb 09 3c 0c 39
       -0.0001414623 -0.0006697828 -0.0019859597 0.00013373805
000270 47 e8 99 b6 43 3c 9c b8 14 41 ac ba 33 ee 1e bb
       -4.586796e-06 -7.449884e-05 -0.0013141953 -0.0024250865
000280 06 63 aa 39 a7 ce 72 ba 94 69 8e 39 da b3 d3 ba
       0.00032498705 -0.0009262361 0.00027163012 -0.0016151622
000290 e3 d4 82 bb ca 5c a7 39 19 59 1d ba ef 29 94 39
       -0.003992663 0.00031921855 -0.00060023513 0.00028260003
0002a0 fc b9 fb b9 35 f7 2d bb 18 45 de 34 29 22 90 39
       -0.0004801302 -0.0026545052 4.1400995e-07 0.00027491272
0002b0 58 08 3e b8 fc af 81 39 6b 59 ce ba 96 c4 91 38
       -4.53073e-05 0.00024735916 -0.0015743201 6.950756e-05
0002c0 f1 42 89 38 0d 3e 1d 39 18 a1 2f b9 55 a7 42 b9
       6.545138e-05 0.00014995802 -0.00016749313 -0.00018563618
0002d0 2e 36 09 38 11 a3 a0 38 e3 44 66 b9 d6 60 6c b8
       3.2713804e-05 7.659768e-05 -0.00021960172 -5.635697e-05
0002e0 4b e2 5a b9 ef 85 ff b8 f7 b7 35 b8 e2 51 b9 39
       -0.00020874401 -0.000121842946 -4.3325093e-05 0.00035346957
0002f0 af 33 86 39 87 29 03 39 2a 9b 5e b9 84 3b 3c 37
       0.0002559698 0.00012508604 -0.00021229373 1.121953e-05
000300 76 d1 9a 38 44 7d 6e 39 b7 b4 c1 35 93 50 1b 39
       7.3823074e-05 0.00022744114 1.4432215e-06 0.00014811968
000310 fb ff 87 b8 17 c1 fa b8 07 ac 67 b9 33 41 99 38
       -6.484982e-05 -0.00011956895 -0.00022093962 7.307753e-05
000320 44 2c 42 b9 d5 fd 4b 39 cc 53 c0 b8 7e 29 29 b7
       -0.00018517772 0.00019454148 -9.170882e-05 -1.0082846e-05
000330 04 fb 94 b8 7c 6f a5 38 00 b6 9f 37 7d 20 5a 38
       -7.103945e-05 7.888579e-05 1.9039027e-05 5.2005507e-05
000340 4a 8d fb b7 68 65 49 b9 e2 b4 57 b9 0f 29 a0 b8
       -2.9987325e-05 -0.0001920663 -0.00020571382 -7.637042e-05
000350 f9 a3 2b b9 3a 71 06 39 6c ba 3b b9 72 7b 3b b9
       -0.00016368915 0.00012821416 -0.00017903157 -0.00017879697
000360 de fd 48 b9 af 1f 2a 39 d0 0d 96 39 a8 3c 46 39
       -0.00019168059 0.00016224266 0.0002862052 0.00018905348
000370 6a a5 09 39 a6 7b 4c b9 01 f4 01 b9 dc 72 16 b9
       0.0001312696 -0.00019501019 -0.00012393297 -0.00014347903
000380 2c 12 27 39 c8 5d ae b8 19 ed 22 ba d0 57 e2 b8
       0.0001593313 -8.314435e-05 -0.000621514 -0.00010792876
000390 38 c2 9b 39 54 34 a1 39 6c 3c 83 37 de 84 7f 39
       0.00029708608 0.000307473 1.5644553e-05 0.00024368192
0003a0 2e 43 92 39 e3 ff 43 39 c5 ad ac 39 78 07 59 39
       0.00027897343 0.00018691974 0.00032935865 0.00020697515
0003b0 a7 a6 70 b8 d7 f1 25 ba 8f 7e ed b8 a0 93 b7 39
       -5.7375666e-05 -0.00063302874 -0.00011324614 0.0003501447
0003c0 c2 55 8b 39 46 1d 86 b8 20 ea 15 ba c0 c7 a0 ba
       0.0002657604 -6.3950705e-05 -0.0005718786 -0.0012266561
0003d0 bd f9 ff b9 b0 ab 44 b6 c6 a7 a8 39 a1 bf b3 39
       -0.0004882346 -2.9306211e-06 0.00032168458 0.00034284315
0003e0 e5 18 80 39 31 c9 ab 39 85 ff 1c b8 f0 dc 0a 39
       0.0002443261 0.0003276556 -3.743127e-05 0.00013243011
0003f0 d1 f0 b6 39 f1 96 8f 39 df 79 ae 39 4a 10 fc b8
       0.00034893167 0.00027387546 0.00033278667 -0.000120193305

conv2.bias f4 [32]
000000 a6 a7 13 bc 03 76 4b 3d d6 57 2a 3e 3c 9e 04 3e
       -0.0090121385 0.04967309 0.16635069 0.12950987
000010 72 d0 37 bd c3 14 13 bc 46 8c ad bc c5 9a c7 3c
       -0.044876523 -0.008977118 -0.021185052 0.024365792
000020 59 4d a4 9a 11 43 f1 3d 08 92 e6 bd 37 65 ae 3c
       -6.795377e-23 0.1178037 -0.11258322 0.021288497
000030 84 70 6b 3d 88 68 6f 3e 38 80 43 bd 22 6a a4 bc
       0.05748035 0.2337972 -0.0477297 -0.02007014
000040 57 74 67 3d d6 6f 15 bb 70 c0 e6 3c b4 d5 0e 3e
       0.056507435 -0.0022802255 0.028167933 0.13948709
000050 6b 71 a8 3c 65 ef f0 bb 32 66 38 3c 41 d1 b7 3c
       0.020561894 -0.007352757 0.011254834 0.022438647
000060 dc 80 86 3d 49 a2 ca 3c 86 a3 a8 bd 89 2a 96 3d
       0.06567547 0.024735587 -0.082343146 0.07332332
000070 b8 b6 db bc 0f 99 69 bc 27 82 11 bd 90 03 da bc
       -0.026820526 -0.014257683 -0.035524514 -0.026613027

fc1.weight f4 [64, 1568]
000000 b7 f2 98 34 25 7d 29 2f e6 75 23 30 d4 39 a0 36
       2.8488805e-07 1.5414921e-10 5.94666e-10 4.7751037e-06
000010 7c 57 ac 34 c9 0f 26 21 90 49 ba 24 20 17 e6 28
       3.210115e-07 5.626388e-19 8.078926e-17 2.5545158e-14
000020 c2 55 97 af d8 fb 82 2b b1 ec 12 36 26 1a 2e 27
       -2.7527675e-10 9.306956e-13 2.1893468e-06 2.4161526e-15
000030 a3 2f 8b 34 40 b8 11 28 56 98 71 35 25 dc 1f 30
       2.5925428e-07 8.08907e-15 9.0001174e-07 5.815671e-10
000040 de 72 17 38 ab 0a 9d 1a b8 d3 ef a8 e2 6e c0 29
       3.6108184e-05 6.495091e-23 -2.6626149e-14 8.545748e-14
000050 a2 4e 76 33 3c 64 6a 2d 87 8d 02 ab 9a 66 78 28
       5.7347854e-08 1.33236165e-11 -4.6381686e-13 1.3789014e-14
000060 fb d7 03 1f 3f 87 3c 35 37 36 b7 aa 7f 41 1a a6
       2.7918984e-20 7.0232267e-07 -3.254495e-13 -5.3518247e-16
000070 bb e9 e5 27 3e 59 36 a8 b7 fd 9f 31 80 c0 18 b0
       6.381368e-15 -1.0122381e-14 4.656353e-09 -5.5570837e-10
000080 ff 2d 14 20 b3 33 69 a8 d2 26 fe a9 ee 3a 0d 2d
       1.2551306e-19 -1.2945309e-14 -1.12866e-13 8.028007e-12
000090 78 aa 1f 2d 8c 65 84 2d 7e d7 a0 2b 62 83 d7 25
       9.075955e-12 1.5051758e-11 1.1428495e-12 3.7385583e-16
0000a0 eb 10 96 28 fa aa 58 25 64 59 8e b5 97 d5 84 9d
       1.6660682e-14 1.8792943e-16 -1.060584e-06 -3.5160956e-21
0000b0 bd 68 e7 a9 c1 8c ed a3 49 95 1e a7 32 e9 e9 2c
       -1.027663e-13 -2.5755203e-17 -2.2007832e-15 6.648148e-12
0000c0 b8 ff 81 28 60 9b 0c 1c ee 51 ed 20 62 4d a0 b9
       1.4432777e-14 4.652293e-22 4.0203578e-19 -0.00030575233
0000d0 7e 50 08 b3 a3 b9 87 ba 4b 48 c6 ba 22 0c a0 a0
       -3.1738175e-08 -0.0010355007 -0.0015127746 -2.7113083e-19
0000e0 7f 5c 4b 9b 0a 82 16 b2 73 ea 89 a1 0e 77 be 32
       -1.6821654e-22 -8.760717e-09 -9.345539e-19 2.2173051e-08
0000f0 34 3b 3d b9 00 63 1d 32 62 b0 63 a9 76 e1 1a 9b
       -0.000180465 9.161113e-09 -5.0557113e-14 -1.2811432e-22
000100 03 b5 28 b2 b3 6e 3c 21 4f 66 b7 b2 8c 34 3b b9
       -9.820044e-09 6.3843387e-19 -2.1350528e-08 -0.00017853285
000110 81 3a f4 31 9e 7e 21 22 b2 30 e6 9e 24 f0 2f 32
       7.1079858e-09 2.18866e-18 -2.4372337e-20 1.0240942e-08
000120 23 8a aa 1f 94 e6 97 b3 9a ad 26 ba c1 10 04 32
       7.222633e-20 -7.073427e-08 -0.0006358266 7.687221e-09
000130 08 d6 16 20 64 65 b9 9c ae ae ec b1 b2 76 79 21
       1.2776311e-19 -1.2268482e-21 -6.8883628e-09 8.4521573e-19
000140 cc f5 74 32 29 15 20 b2 0a b3 80 27 f3 ba 56 a0
       1.4258557e-08 -9.318037e-09 3.572125e-15 -1.8188361e-19
000150 c0 b9 05 39 73 e2 cd 30 6c 6e dc 9f da 39 c3 b2
       0.00012753066 1.4980074e-09 -9.33563e-20 -2.2727296e-08
000160 13 5e ed b1 40 79 c4 b1 3e 54 34 a0 35 00 24 39
       -6.908303e-09 -5.7181353e-09 -1.5274466e-19 0.00015640336
000170 bc 07 2e 32 59 73 83 1f be ca 4e 1f ef db 11 20
       1.0129892e-08 5.5671485e-20 4.37899e-20 1.2354748e-19
000180 9c 73 12 9e 56 11 00 80 1b 25 d9 20 99 b3 c8 1f
       -7.753083e-21 -6.219e-42 3.6785784e-19 8.5000414e-20
000190 b6 ad 0f 21 e6 4f 5b ba aa 97 49 21 0a b5 d9 b9
       4.868019e-19 -0.0008366093 6.8302175e-19 -0.0004152435
0001a0 6a 2a 85 20 11 73 f6 21 e3 a8 9a 21 7b b9 2a a1
       2.2559144e-19 1.6700066e-18 1.048015e-18 -5.784372e-19
0001b0 70 71 b8 ba 5e 09 92 b1 6b 0d 0d b9 f1 19 b7 b8
       -0.0014071893 -4.250224e-09 -0.00013451806 -8.730952e-05
0001c0 ad b8 99 a1 30 c4 fc a1 bf 9c 29 20 66 2a 5b a2
       -1.0416567e-18 -1.7128115e-18 1.436672e-19 -2.970248e-18
0001d0 d2 25 c6 b2 49 34 1f b6 d5 54 46 a2 8d ab 57 20
       -2.3067432e-08 -2.372328e-06 -2.6878913e-18 1.826797e-19
0001e0 ac 8e 4b 20 0f fa 9b a9 1e 2f 23 b7 e9 91 c6 2d
       1.7241975e-19 -6.926761e-14 -9.726527e-06 2.2574791e-11
0001f0 da a0 78 24 4c 47 f2 9e 97 7e cd b6 1f bb 34 b7
       5.3912674e-17 -2.5652234e-20 -6.124213e-06 -1.0772404e-05
000200 9e 67 47 b6 a1 2a da b5 3a d8 dd b4 58 14 d4 b8
       -2.9713624e-06 -1.6254672e-06 -4.1321783e-07 -0.00010112737
000210 26 5d 0c 21 35 c8 68 b3 cc 33 6c b1 d6 7c ca b1
       4.7557126e-19 -5.4198797e-08 -3.4371963e-09 -5.893166e-09
000220 d0 a8 68 b0 0b 55 a9 a9 de e1 37 b1 c7 f8 be b1
       -8.4641005e-10 -7.51986e-14 -2.6758395e-09 -5.5580105e-09
000230 72 b7 88 1e 74 7d 2d ba f3 9b 4b ba e1 7f ca b9
       1.4475431e-20 -0.000661812 -0.00077670737 -0.0003862372
000240 e4 e8 87 a0 42 af db 9f 96 a2 2d 31 c7 02 98 b0
       -2.3024004e-19 -9.304005e-20 2.5267233e-09 -1.1060245e-09
000250 53 ae 38 b5 2d 30 dc ad 8d 63 ab 20 99 8f 25 b4
       -6.8799017e-07 -2.5032499e-11 2.9034404e-19 -1.5419063e-07
000260 be c0 ac b4 48 45 ba b9 e9 07 fe 31 49 e4 33 b5
       -3.2177735e-07 -0.00035528303 7.393272e-09 -6.7014895e-07
000270 71 0d 3e ba bf 32 09 a2 29 c6 01 33 04 76 68 b3
       -0.0007249928 -1.8593827e-18 3.021538e-08 -5.4124044e-08
000280 ff af a2 ba c3 8c 00 32 86 53 0a b5 5f d5 ec 21
       -0.001241207 7.482586e-09 -5.153055e-07 1.6048461e-18
000290 ea 9d 40 21 72 0c 67 b3 4c 79 59 33 8f e3 b3 b9
       6.526113e-19 -5.3795198e-08 5.063457e-08 -0.00034311085
0002a0 43 f1 3c 32 84 98 7a 32 53 40 21 22 e8 a6 3d a1
       1.0997897e-08 1.4586593e-08 2.1853622e-18 -6.425659e-19
0002b0 67 3d b1 2f 1b 93 96 b8 b1 59 af b9 fd 6b 0c b2
       3.2239741e-10 -7.179958e-05 -0.00033445426 -8.173626e-09
0002c0 4b e5 d4 b4 19 08 39 a1 6a a8 ac 9e 95 5c a1 b1
       -3.965491e-07 -6.2691155e-19 -1.8280863e-20 -4.696242e-09
0002d0 8d 62 ef 32 ce 54 97 b9 b2 20 57 32 16 bd 4a b5
       2.7868078e-08 -0.0002886415 1.2522081e-08 -7.552602e-07
0002e0 df ef bd ae 60 c9 64 ad 6c 31 7b b3 b9 b1 46 b9
       -8.6373346e-11 -1.3005014e-11 -5.848544e-08 -0.00018948958
0002f0 0e d1 ab b9 90 c4 be b1 e8 67 a2 b0 03 6d 20 20
       -0.0003277142 -5.5520744e-09 -1.1816583e-09 1.3588596e-19
000300 7d a7 80 20 e1 5e bc 32 e7 94 b1 b9 13 e5 35 ba
       2.1794878e-19 2.1929226e-08 -0.00033871012 -0.0006938737
000310 3a 53 58 20 d4 3a c8 21 76 6e 07 b9 ac d9 bd 32
       1.8323449e-19 1.3568099e-18 -0.00012915753 2.2101482e-08
000320 4e 46 a1 ba cc db 13 21 78 e7 9a 20 3c 7a fe 20
       -0.0012304278 5.0096436e-19 2.6241788e-19 4.3110162e-19
000330 1b 4d 6c a1 e1 41 39 ba 14 53 30 ba 46 b0 bf ba
       -8.006196e-19 -0.00070670067 -0.0006726247 -0.0014624677
000340 a4 91 34 21 8d fc 88 21 94 7d 50 1f 22 8a 0a 20
       6.1179126e-19 9.282568e-19 4.414959e-20 1.1734759e-19
000350 11 c3 97 21 39 43 aa a1 91 25 00 ad dd 71 0b b1
       1.0283792e-18 -1.1537442e-18 -7.284299e-12 -2.0291886e-09
000360 11 77 11 af eb 66 ef 1f 13 e7 0d 21 73 26 16 ba
       -1.3229974e-10 1.013907e-19 4.807848e-19 -0.0005727775
000370 8b bd f2 a0 9b 90 33 22 3f a8 63 20 49 23 1a 1f
       -4.1121824e-19 2.4335577e-18 1.9283316e-19 3.2639956e-20
000380 c4 60 60 26 a4 72 f3 b1 c9 e6 98 9f b5 b9 98 a0
       7.7846754e-16 -7.085264e-09 -6.4756306e-20 -2.5872692e-19
000390 7b 42 54 9d 5e f6 78 21 6c 62 87 a1 f0 48 67 30
       -2.8092336e-21 8.4351733e-19 -9.174008e-19 8.414096e-10
0003a0 9e 17 5a 20 35 81 ca 20 d7 54 5c ba ff c6 03 a0
       1.8473133e-19 3.4305633e-19 -0.0008404976 -1.1161974e-19
0003b0 a9 96 0b 21 5f 2a 26 a0 22 33 05 20 13 44 22 ba
       4.729443e-19 -1.4074766e-19 1.1282457e-19 -0.00061899534
0003c0 3c bf b9 31 35 50 ed 1f 9b 9a 86 9f 96 09 f1 31
       5.4059495e-09 1.00506096e-19 -5.700698e-20 7.015113e-09
0003d0 a2 1a f0 30 35 a3 06 a2 e3 7c 07 ba 9a 6c 07 32
       1.7469868e-09 -1.8246787e-18 -0.0005168451 7.882727e-09
0003e0 8a 26 72 b9 60 a0 76 ad 04 cc 88 b9 8d 48 90 b8
       -0.00023093275 -1.40190914e-11 -0.00026091945 -6.879969e-05
0003f0 fb 2f 8e b1 f1 45 96 a2 59 a9 c8 b1 7d 0a a9 b8
       -4.1381987e-09 -4.0731635e-18 -5.8400187e-09 -8.0605016e-05

fc1.bias f4 [64]
000000 c4 cd b4 b9 a3 7c 19 3d 99 88 f8 b5 05 8d 13 3d
       -0.00034485583 0.03747238 -1.8517195e-06 0.03602316
000010 2a fb 86 bc 96 35 e1 bb c0 78 aa b6 30 4a 07 37
       -0.016477186 -0.006872843 -5.080452e-06 8.0639e-06
000020 8f 40 94 ba 67 e9 c6 3b e4 4d dd ad 73 e6 c2 bb
       -0.0011310744 0.006070304 -2.5159382e-11 -0.005947882
000030 84 e5 0e bb 7f 4c aa 1e db 48 af b3 06 38 65 3b
       -0.0021804282 1.8031088e-20 -8.162325e-08 0.003497602
000040 10 d9 86 3c 5d a9 f6 3c ac 20 d4 b7 10 1e c9 3c
       0.016460925 0.030110056 -2.5287583e-05 0.024550468
000050 63 a0 ad bc db 11 81 28 57 88 6d bb b2 d5 35 b6
       -0.021194642 1.432962e-14 -0.0036244595 -2.7095489e-06
000060 56 e9 15 3c 45 8c fa 3c a2 20 a9 3b 52 d1 e6 3c
       0.00914987 0.030584464 0.005161361 0.028175984
000070 26 c2 b3 3b 1a 10 68 a9 29 d3 55 2b b6 67 b2 a2
       0.005485791 -5.1528314e-14 7.5965845e-13 -4.8356805e-18
000080 65 98 70 bc eb 64 bd 3c f5 4b aa bb 0c 6b b7 3c
       -0.014684771 0.02311941 -0.005197043 0.022389911
000090 53 13 b6 3c b1 da 1b b5 fb 54 b1 3c b2 6d 83 bc
       0.022226011 -5.806024e-07 0.021646967 -0.016043518
0000a0 48 f6 11 3d e9 fe 0b 39 df 28 9a 3c 64 af c3 3c
       0.035635263 0.00013351034 0.018818317 0.023887344
0000b0 6d 8f 0f 3d 15 da 87 ba f6 ae 88 3c dc d4 f9 b4
       0.03504889 -0.0010364676 0.01668499 -4.653474e-07
0000c0 2a f8 97 a3 84 44 23 3d 7a 04 8d 3c 13 f7 83 3c
       -1.6476554e-17 0.039860263 0.017214049 0.016109025
0000d0 fd e2 27 3d 90 21 0d 3d 62 f4 3e bc d2 b3 95 bc
       0.040987957 0.034455836 -0.011654945 -0.018274222
0000e0 4f cd 12 3d b9 13 a7 2b d4 9e 09 3d f4 8e 45 3d
       0.03584033 1.1871538e-12 0.033598736 0.048232034
0000f0 89 c2 88 3c b2 b5 f3 bb 4c b0 25 3a 51 2a 2a b7
       0.016694324 -0.0074374313 0.0006320521 -1.0142642e-05

fc2.weight f4 [10, 64]
000000 f2 84 53 3b 17 fa 4e be 2a 01 e9 bb ca 75 36 3e
       0.0032275287 -0.20212589 -0.0071107345 0.1781837
000010 c4 fe 4c 3e f5 c9 25 3e 7a 60 4a 3b 0d 21 0a 3b
       0.2001906 0.16190322 0.0030880258 0.0021076829
000020 b1 6b 29 3e 65 3c 9f 3d d7 c9 34 bc db f8 8f bd
       0.16544987 0.07775191 -0.0110344505 -0.07029887
000030 36 95 e6 3c 75 fa 73 bb e1 ec 84 bc 7e bc d9 3e
       0.028147321 -0.0037228141 -0.016226234 0.4252662
000040 d8 53 70 be 44 49 f1 3d 7a 8b ab 3b 8e 81 12 be
       -0.23469484 0.117815524 0.0052351328 -0.14307234
000050 c9 a7 c6 3c 44 d9 16 3b a4 39 8b 3d 21 07 fb ba
       0.024249928 0.0023017684 0.067981035 -0.0019151905
000060 d6 ed 30 3e 25 ea 4d be 60 6c c6 bd 2e 7a fe bd
       0.17278227 -0.2010885 -0.0968864 -0.12425648
000070 19 18 90 be 5a ad cd 3b 8d b1 18 bc 16 10 3d 3a
       -0.28143385 0.0062767686 -0.009319675 0.0007212175
000080 db eb 23 3b b8 74 a0 3e 40 75 3e 3a f5 14 cd ba
       0.0025012407 0.3133905 0.00072653964 -0.0015646504
000090 6c 7d 0d 3e 26 08 ca bc fd c4 a8 3d 6d 99 cd 3d
       0.13817376 -0.024662089 0.082406975 0.10039029
0000a0 4c 77 99 be 07 8d 55 ba be 56 a1 3d 06 80 b2 be
       -0.2997383 -0.000814632 0.07877873 -0.348633
0000b0 73 69 48 3d 68 b7 2a 3c 16 c5 42 3e f4 ee ca 39
       0.04892869 0.010419704 0.19020495 0.00038706476
0000c0 8e ac c4 bb 7c 62 ad be a0 7a 60 bd 55 85 ff 3d
       -0.0060020154 -0.338642 -0.054804444 0.12476603
0000d0 f1 6f 23 be 2f 03 15 be d6 85 8b 3c ac e7 ae bc
       -0.15960671 -0.14551996 0.017031591 -0.021350704
0000e0 51 bb 1d be f8 31 e3 ba 7e 4a ba 3c b9 ee c5 be
       -0.15403487 -0.0017333617 0.022740599 -0.38658693
0000f0 d1 99 5b be 37 d2 32 bb cc ff 48 3e af 69 4d bb
       -0.21445395 -0.0027285942 0.19628829 -0.003134351
000100 2d da 21 39 f2 36 a2 bd 08 5e 1b b3 86 31 f0 be
       0.00015435433 -0.07920636 -3.617427e-08 -0.46912783
000110 e2 f8 ba be 23 55 45 3d 1b 84 73 37 ea 2e 09 ba
       -0.36518008 0.048176896 1.4514687e-05 -0.0005233126
000120 15 a7 a2 bd 4f 51 a7 be 36 0e b7 bb 41 8d 07 bc
       -0.079420246 -0.3267922 -0.005586411 -0.008273424
000130 f5 b6 09 bc 6d 4e d1 36 5b 48 8b 3c f9 c3 b0 3c
       -0.008405437 6.2378153e-06 0.017002275 0.021577822
000140 8a e9 5c bd 4b 1c e4 be bf e6 da b7 f2 59 0c 3e
       -0.053933658 -0.44552836 -2.6095075e-05 0.13706186
000150 37 1c 4e bc 98 dd 3e 3b 76 88 b5 be 72 9a b7 3b
       -0.012579969 0.002912378 -0.35455674 0.005603128
000160 4a d0 b9 3e 72 8c 62 be 78 5f ad be 27 31 72 3e
       0.36291724 -0.22123888 -0.338619 0.23651563
000170 77 ca 46 3e 6a ca 96 bb 77 35 39 3b a0 41 fe b6
       0.19413172 -0.0046017664 0.0028260627 -7.5774296e-06
000180 50 38 37 bd 05 3e 92 bd 17 d9 cd 3c a9 86 64 3e
       -0.04473144 -0.071407355 0.02512793 0.22316994
000190 07 4a 1e 3e 40 48 ad 3a 85 60 6e 3d df 61 0c 3e
       0.15457927 0.0013220385 0.058197517 0.1370921
0001a0 2c f1 a1 be bb 7e 79 3a 8a 9e b0 3d 90 19 91 be
       -0.31629312 0.00095174805 0.08623989 -0.28339815
0001b0 47 16 59 3d 28 86 a0 bc 65 c6 54 3e f5 54 8e 3c
       0.05299976 -0.01959522 0.20778807 0.017374495
0001c0 01 6e 5c 39 ef 94 9c bd 58 2e 6b 3e dc ad 28 3d
       0.00021021815 -0.07645594 0.22966897 0.04118143
0001d0 54 b1 23 3d e7 20 46 be 41 2b 14 bd f5 24 e8 bb
       0.039964035 -0.19348489 -0.036174063 -0.0070844837
0001e0 57 b3 a3 be b3 83 e9 3a f9 e5 ad be b2 e7 83 3e
       -0.31972763 0.0017815739 -0.33964518 0.25762707
0001f0 ad f9 34 3e 8c 83 51 ba bd 10 61 3e 47 20 4b 34
       0.17673369 -0.00079923193 0.21979041 1.891759e-07
000200 8c 3d b9 3a 7b 11 c4 be 81 90 54 3c 10 3c 8c 3e
       0.0014132722 -0.38294587 0.012973906 0.27389574
000210 db 45 13 3d 20 61 01 3c 6e 44 5c 3b f2 9d 00 bb
       0.03595529 0.007896692 0.0033610123 -0.0019625393
000220 1d 57 44 bb d3 37 0d 3e 1a f5 02 3c 16 da c6 bd
       -0.002995915 0.13790826 0.007993007 -0.09709565
000230 8f 27 1e bd bd 6a 9c 3b eb b9 1e 3d 70 be 94 be
       -0.038611945 0.0047734664 0.038751524 -0.29051542
000240 ab d8 a8 be 04 66 f9 bd 01 19 76 3b b5 ef 20 bd
       -0.32977805 -0.12177661 0.0037551525 -0.039291102
000250 54 22 f5 bc f8 5b 82 bb 86 36 80 3d f2 5e e5 3c
       -0.029923595 -0.0039782487 0.062603995 0.027999375
000260 1e 3a 44 3e af 4c 1e 3e 2b d5 e6 3d f1 23 42 3d
       0.19162795 0.1545894 0.11271127 0.047397558
000270 0e fd b1 3d 59 9c 02 bc f4 04 da 3b 72 ce 85 3b
       0.086908445 -0.0079718465 0.0066534225 0.004083448
000280 1b 85 3a bb 9f 3a 26 be 06 e5 74 3b 9b 33 5b 3d
       -0.0028460685 -0.162333 0.0037367954 0.05351601
000290 a2 50 d5 3d 1a 02 7b 3c d1 ed b0 3d 7c b8 35 be
       0.1041577 0.015320325 0.0863911 -0.17746156
0002a0 fe af ff 3d 5e 7a 99 ba 0f 61 79 3e 38 a7 28 3e
       0.1248474 -0.0011709442 0.24353431 0.16470039
0002b0 e3 2a de be ed 66 63 3c 93 f4 4b 3a 26 e6 86 bc
       -0.43392095 0.01387952 0.000778028 -0.016467165
0002c0 3d 1d 04 bc d8 8f c9 be 36 d5 56 3e 19 8c c7 bd
       -0.008063612 -0.39367557 0.20979771 -0.097435184
0002d0 be 9e 41 3e 9d 42 9c be 67 4d d9 3c b4 6c e3 3c
       0.18908212 -0.30519572 0.026526166 0.027761795
0002e0 26 fc 79 bd dd 00 35 3c 56 90 3b 3d 5b 46 cc be
       -0.061031483 0.011047569 0.045791946 -0.39897427
0002f0 99 72 73 3b 41 ea b5 bb c8 87 da be 66 77 20 3c
       0.0037147163 -0.005551607 -0.42681718 0.009794092
000300 1a 83 06 bc 91 82 5a 3e 31 51 26 bc f3 f9 77 3d
       -0.008209968 0.2133887 -0.0101511935 0.060541105
000310 f2 e9 98 be 18 90 01 3e bf a0 cf b9 f7 e3 7a 3a
       -0.29865986 0.12652624 -0.00039601882 0.00095707126
000320 d2 34 d7 be e9 30 26 be d0 34 da 3c 45 33 9e be
       -0.42032486 -0.16229595 0.026636511 -0.3089849
000330 62 ac 9f bc b6 c9 ff ba f7 c7 29 ba cf b5 a5 bd
       -0.019491378 -0.0019515071 -0.00064766355 -0.08091318
000340 da 48 9a 3e 1f 04 63 bb 9c bc 7b bb ff 25 3f be
       0.30133706 -0.0034639908 -0.003841198 -0.18666838
000350 38 be 28 3c a3 9c 13 bb 33 c0 d5 3c 06 0c f1 3b
       0.010299258 -0.0022523783 0.026092624 0.0073561696
000360 92 ff b7 be 5d 44 00 3e 45 20 e9 3d ea e7 86 be
       -0.35937172 0.12526079 0.11383108 -0.2634881
000370 8b ed 48 3e 06 76 76 bc 97 a6 0c 3b a2 a9 c5 39
       0.19621865 -0.015042787 0.00214616 0.00037701154
000380 9c 5a 04 3d f4 62 12 bf 4c 4b c6 bb a7 5e 67 3d
       0.032312974 -0.5718224 -0.0060514566 0.056486752
000390 74 2e bf 3d 51 6f 98 3b 96 0a ab 3d c7 fe 06 3d
       0.09335032 0.004651942 0.083516285 0.03295782
0003a0 1a 65 3a bd c2 d9 87 3a 27 b9 c2 be 99 73 a9 be
       -0.045506574 0.001036458 -0.38031885 -0.33096007
0003b0 cc cf 5e 3e 77 2b 90 3c 87 97 a1 3c f7 9a cc bc
       0.21758956 0.01759885 0.019725574 -0.024976237
0003c0 98 f6 be 3a a7 84 c8 bd 9b 81 5f 3d 34 a8 6d 3e
       0.001456934 -0.097909264 0.05456696 0.23208696
0003d0 9f d1 2c 3e 9b 4e b6 bd 82 44 5c 3c 60 59 0c 3d
       0.16876839 -0.089017116 0.013444068 0.034264922
0003e0 4a ad 97 3e 57 b6 4b bc 3e 3c 3b 3e 8d 21 ca 3d
       0.29624397 -0.01243361 0.182847 0.098696806
0003f0 a3 6b 6c be e4 d6 36 bb c6 4d c1 bd 4b c2 87 39
       -0.23087935 -0.002789908 -0.09438662 0.00025893966

fc2.bias f4 [10]
000000 4b 02 0a bd 04 6d 8a bb f6 5d 95 3d 54 20 97 3c
       -0.033693593 -0.0042244215 0.07293312 0.018448032
000010 3d f8 ba bd 34 f7 65 bd 7c 16 ee 3d 7d e0 55 3c
       -0.09129379 -0.056143954 0.11625382 0.01305401
000020 31 4c 97 bc ac b7 23 3d
       -0.018468948 0.039970085
